data.pth (torch, 6634 bytes, 6 tensors)

l1.weight f4 [8, 79]
000000 71 aa ed 3d 5f 1a c6 bd fa ad e7 3e ee 27 44 be
       0.11604775 -0.09672999 0.4524992 -0.19155857
000010 7f 8e 85 be ee 35 16 3e 61 f1 b9 3e ba 32 90 be
       -0.26085278 0.1466901 0.3631697 -0.281637
000020 0e 35 e7 be ad 17 cf 3e a0 30 b4 3e c0 65 e2 3e
       -0.45157665 0.4044775 0.35193348 0.44218254
000030 fa c1 7f be 80 25 dd bd 7f b6 0b 3f 33 2a ae bd
       -0.2497634 -0.10798168 0.5457534 -0.085041426
000040 08 ed 7e 3d 06 9f b8 be 9b d4 16 3f e3 4f 33 be
       0.06223777 -0.36058825 0.5891816 -0.17510943
000050 08 77 32 3e 3d 33 a5 be 8b 18 4d 3e e9 24 e7 be
       0.1742822 -0.32265654 0.20028894 -0.45145348
000060 7d 2f fa 3d 66 15 d0 3d ea 9c 98 39 92 80 12 3f
       0.12216089 0.101603314 0.0002910861 0.5722743
000070 51 b4 1d 3d ed 57 84 3e 7b 4f c0 be 60 c8 bb 3d
       0.03850204 0.25848332 -0.3756064 0.09169078
000080 ca 98 c5 3b 57 4e 55 3e a9 59 06 bd d1 33 ee 3e
       0.0060301768 0.20830666 -0.03280035 0.46523908
000090 1b 2c 65 3e 9c e9 9f be 9d fa b5 be d8 e4 c1 be
       0.22380106 -0.31232917 -0.35542765 -0.37869906
0000a0 ef f8 a7 bc 55 fd 8b be 09 2c bb 3e 49 7f 08 3f
       -0.020504443 -0.27341715 0.36557034 0.5331922
0000b0 c5 4f 80 3e 15 5d 39 3e 0a 7f 9c bd 64 3c 40 be
       0.2506086 0.18101914 -0.07641418 -0.18773037
0000c0 b9 03 b1 be d1 39 b6 bc 2e e7 48 3e bd 6a d6 3e
       -0.34573153 -0.022244366 0.19619438 0.4187831
0000d0 f2 b9 c8 bd 2c ca 97 3e 1a e3 b3 3e af 3c 3e be
       -0.09801091 0.29646432 0.35134202 -0.18577836
0000e0 71 8b 11 3f 0f 52 83 be 10 5c fe 3e d9 2f aa be
       0.56853396 -0.25648543 0.49679613 -0.3323963
0000f0 91 87 69 3e cb 5c 40 be 05 a4 0c 3f 7f b8 28 3f
       0.2280562 -0.18785398 0.54937774 0.6590652
000100 13 d3 c7 3e ae f7 9a be de 3c 3a 3e e5 5a 32 bd
       0.39028224 -0.3026709 0.18187281 -0.043543715
000110 01 7d f5 3c 7d 75 a1 bd 91 c2 46 3e 58 61 fd bd
       0.029966833 -0.07883737 0.19410159 -0.123720825
000120 e8 28 ea bd 21 a4 0e 3f 58 2e 04 3f 09 91 8b be
       -0.114335835 0.5571919 0.51633215 -0.2725909
000130 3a 5f 8a 3e 68 b9 d3 3e 96 61 00 3f 3e 12 33 3e
       0.27025777 0.4135239 0.50148904 0.17487428
000140 d5 b8 cd 3e ca 4f c2 be dc 93 fc 3e db d1 b5 3e
       0.40180078 -0.379515 0.49331558 0.3551167
000150 66 d4 a9 3e c7 7f ba 3e fe d7 56 be 82 b3 2c bf
       0.3316986 0.3642561 -0.20980832 -0.6746141
000160 d1 f2 82 3e 4b ae 4d be 4a 28 11 bf 27 c7 84 3e
       0.2557588 -0.20086019 -0.567021 0.2593319
000170 7e ce 90 be 3a cf 4b be 69 a4 bb be 65 9e ca 3e
       -0.2828254 -0.1990327 -0.36648872 0.3957397
000180 04 2f cf be 4e 63 14 3e 23 c0 49 be c1 b2 ca 3e
       -0.40465558 0.14491007 -0.197022 0.39589503
000190 36 fb a6 3d 7f f5 fb 3e 12 b4 2c bf e7 e4 50 be
       0.081533834 0.49210736 -0.67462265 -0.2039982
0001a0 89 5e 1f 3f 90 c6 4a 3e f6 58 01 3f 10 ed 25 3f
       0.62253624 0.19802308 0.5052637 0.64814854
0001b0 8e 10 02 3f 1a 6e ba 3e ac f4 bd 3e 08 51 8c 3e
       0.5080651 0.36412126 0.37100732 0.27405572
0001c0 c1 92 a8 be a2 2b 1a 3f b4 34 f6 3e f4 d3 65 be
       -0.32924464 0.6022283 0.48087084 -0.22444135
0001d0 f1 c7 b4 3e fa 3b b5 be 14 30 4a be 4d d0 00 3f
       0.35308793 -0.3539732 -0.19744903 0.5031784
0001e0 be e2 90 be 3d cb df bd 21 74 9b be 2f 66 a9 3e
       -0.2829799 -0.109274365 -0.30362037 0.33085772
0001f0 c8 bf ce bd 17 4f 8c be 69 d0 cd 3e d4 ee e7 be
       -0.10095173 -0.2740409 0.40198067 -0.452994
000200 d2 6c 02 bf 04 c5 e1 bd fe 3f 2e bf f1 35 1e 3f
       -0.50947297 -0.11023906 -0.68066394 0.6180106
000210 a7 8d 59 be f8 92 62 be 93 92 03 3f f1 83 1c 3f
       -0.21245442 -0.22126377 0.5139553 0.61138827
000220 e7 65 7b be fc ac 3d 3f 90 66 c7 be c4 7d 2c bf
       -0.24550591 0.7409208 -0.38945436 -0.67379403
000230 5c 15 8c be 37 93 db 3e 6d 78 46 3e 4d 1b 92 be
       -0.27360046 0.42885754 0.19381876 -0.28536454
000240 ec 6d b3 be 38 d9 94 3e b8 3c 8d 3e f2 4f 5e 3e
       -0.350448 0.29071975 0.27585387 0.21710184
000250 9f 5b 8f be 3f 8e 9e 3e 27 39 43 3f d7 c3 d4 3e
       -0.2799959 0.309679 0.7625908 0.41555664
000260 ca 4c a4 bc 3a f7 aa 3e 5e 2a d4 be 87 ed 54 be
       -0.020056147 0.33391744 -0.41438574 -0.20793734
000270 9a 9a 90 be 5c 06 56 3e f6 06 c4 be 1b 5d e7 3e
       -0.28242952 0.20900863 -0.3828656 0.4518822
000280 26 4a 50 3f f1 41 ac 3d f5 d4 d5 3c b3 e0 f6 3e
       0.8136314 0.08411015 0.026102522 0.48218307
000290 d1 f9 1b 3f 7b 32 af bd a6 00 55 3f 68 34 12 be
       0.60928065 -0.0855455 0.83204114 -0.14277804
0002a0 38 19 17 3f 50 96 29 3f 6d 5d 31 bd 0a a4 22 be
       0.59022856 0.66244984 -0.04330199 -0.15882888
0002b0 bc 2f 3e 3f 38 1d 8b bc 9a d0 ef 3e 44 61 f3 be
       0.74291587 -0.016981706 0.46838838 -0.47535145
0002c0 2b 85 00 3e c6 d0 1d bf 56 5f e9 3e b3 49 a4 be
       0.125508 -0.6164669 0.45580548 -0.32087478
0002d0 c4 88 1a 3f bd 6a 28 3f 18 46 d3 be ba db 1d 3f
       0.6036494 0.6578787 -0.41264415 0.616634
0002e0 7d ff 83 be ad ba 4b be ee e8 2f 3f c7 ba 30 3f
       -0.2578086 -0.1989543 0.687148 0.69035
0002f0 f0 b2 a6 3e b6 03 d0 3e 61 b5 ed 3e b7 1c e1 be
       0.32558393 0.4062783 0.46427444 -0.4396722
000300 c7 c8 bc 3d d1 71 4f 3f 8a 2b 9c be 15 ff 12 3f
       0.09217983 0.81033045 -0.30501968 0.57420474
000310 2a 9f e4 3e aa 23 4c 3f 08 d7 2b 3e 90 b4 d3 be
       0.44652683 0.7974192 0.16781247 -0.41348696
000320 c2 58 e7 be 04 62 46 3f 55 7b 3e 3f 86 cf 81 be
       -0.45184904 0.7749331 0.7440694 -0.2535364
000330 96 ff e2 3b 0f 06 cb bd 08 58 5c be 76 99 08 be
       0.006927441 -0.09913265 -0.21517956 -0.1333979
000340 8e 9c 97 be 0e be 42 3f 14 25 16 3e e3 4a 3a 3f
       -0.2961163 0.7607125 0.14662582 0.7277052
000350 09 df 14 3f f1 72 e4 3d 41 1c 2f be f3 45 29 3f
       0.58152825 0.11154736 -0.17100622 0.6612236
000360 fe 59 bb bd 7e 1f f8 3e 4e ef 0a bf ae 5d f3 be
       -0.09148024 0.48461527 -0.542714 -0.4753241
000370 1a c3 81 3e 19 00 1c bf 18 a7 a3 3e 23 95 fe 3c
       0.25344163 -0.6093765 0.3196342 0.031076973
000380 af 88 40 3f 4a 24 5c bf ce af 60 be 68 75 b7 bd
       0.7520856 -0.8599287 -0.21942064 -0.0895794
000390 70 e0 f9 3c 02 97 ee 3d e2 fc 34 3e 27 2b 1f bf
       0.030502528 0.11649896 0.17674592 -0.6217522
0003a0 b8 4b 62 be be b4 c2 be ac cb 9f be e5 bc 29 3f
       -0.22099197 -0.3802852 -0.31210077 0.66303855
0003b0 c7 86 37 3e 54 b2 7d bc 90 a2 a8 3e 16 7c 12 3f
       0.17922507 -0.015484411 0.32936525 0.5722059
0003c0 8c 01 a1 bd ba 49 03 bf b6 fa 92 be de c9 28 3d
       -0.07861623 -0.5128437 -0.28706902 0.04120814
0003d0 7b bb 53 3e 19 18 1c 3f 2f 23 50 3e 20 bb f2 3e
       0.20676987 0.6097427 0.20325921 0.4740839
0003e0 43 1e 1f 3f f6 b7 09 3e 99 e4 7f 3e 1c 5c a1 3e
       0.6215555 0.13449082 0.24989547 0.31515586
0003f0 b5 a4 e6 3e c8 2c 17 3e 84 5b be 3e 1d 5b 2d 3f
       0.45047536 0.14763176 0.37179196 0.6771715

l1.bias f4 [8]
000000 a4 1b 1f 3f b8 b2 2c 3f 2c 23 5c 3f 39 55 45 3f
       0.6215155 0.67460203 0.8599117 0.77083164
000010 2d d0 06 3f b5 80 73 3f 1f 48 86 3f 39 c3 f2 3e
       0.526614 0.95118266 1.049076 0.47414568

l2.weight f4 [8, 8]
000000 eb 34 b5 3e 9b 41 aa 3f f3 a6 8d 3f f8 41 89 3d
       0.35391936 1.3301271 1.1066574 0.06702036
000010 54 d2 94 bf 41 25 c1 3f c4 4e ab 3f 8f b7 b2 be
       -1.1626687 1.5089494 1.3383412 -0.3490567
000020 89 03 3f be 97 fb d2 3e 89 dd 6a 3f 1f 3f a0 3d
       -0.18653692 0.41207573 0.91744286 0.078245394
000030 10 2f 7e 3f 06 f8 32 3f 3a 6b 51 bf fe a6 dd be
       0.9929056 0.69909704 -0.8180424 -0.43291467
000040 e2 f1 0a bf 37 91 76 bf 21 21 df be 77 ea 5f 3f
       -0.54275334 -0.9631533 -0.43579963 0.8746714
000050 07 4c 95 3f 92 5b 72 3e 4f e1 34 3f ca a1 be 3e
       1.1663827 0.23667744 0.70656294 0.3723281
000060 e9 57 91 3f 16 cf 46 3f de 1d 3e 3f eb 7e 73 3f
       1.1354953 0.7765974 0.74264324 0.95115536
000070 96 7c 14 bf 07 fc 54 bf 1c 12 2a bf 4f 2d bc 3e
       -0.58002603 -0.83197063 -0.6643388 0.36753318
000080 ab 4e 28 3f 61 02 38 bf bb 97 97 3f 0e 0e 55 3f
       0.6574504 -0.7187863 1.184318 0.8322457
000090 62 81 26 3e ff 11 2f 3e ae 17 3c bf 30 2c 39 3f
       0.16260293 0.17096709 -0.7347363 0.7233305
0000a0 8e 10 9c be cb ab 82 3f 6c 04 4a 3f 1c b0 69 be
       -0.3048138 1.0208677 0.78913 -0.22821087
0000b0 cf 01 27 3f f9 d6 4e 3e 4f 49 0d 3f 3d dd ad bf
       0.65237135 0.20199193 0.55189985 -1.3583142
0000c0 f9 e0 91 3f d3 91 d8 3e 44 77 7d bf 82 13 8f 3f
       1.1396781 0.42298755 -0.9901011 1.1177828
0000d0 bd 73 4b 3e fe 20 a8 3e 17 83 5e bf 19 f0 ac 3f
       0.1986837 0.3283767 -0.8691878 1.3510772
0000e0 57 bc a2 bc 9c 2e 3d bf 8d 87 9d 3f ce 39 57 3f
       -0.019865198 -0.73899245 1.2306992 0.8407258
0000f0 8d 55 69 3f 49 c6 16 bf a3 34 93 3f 3d bb b0 be
       0.91146165 -0.5889631 1.1500438 -0.3451785

l2.bias f4 [8]
000000 ab dd 6d 3f ce 47 ea be da 38 73 3e 98 ec e9 3e
       0.92916363 -0.45757908 0.23752156 0.4568832
000010 53 bd 6b 3e fd 40 ba 3e 1a 7e 08 3f ba 24 42 3e
       0.2302144 0.36377707 0.53317416 0.18959323

l3.weight f4 [10, 8]
000000 03 46 08 bf 42 6a b8 bf 0f 52 5f 3f 62 9e 4c bf
       -0.5323183 -1.4407427 0.87234586 -0.79929173
000010 48 98 d8 bf ea 2a f6 3d b6 24 33 bf 56 af 3d 3f
       -1.6921473 0.12019904 -0.6997789 0.74095666
000020 39 3c 4c bd 84 c3 78 3f 3d 4e ac bf 70 c6 07 3e
       -0.04986212 0.97173333 -1.3461376 0.13259292
000030 89 ee 9d 3d d8 43 0e 3e 33 23 cf be 14 32 0e bf
       0.077115126 0.13893068 -0.40456542 -0.55545163
000040 82 64 5f 3e c8 c5 ba bd 83 d5 e5 3e 84 62 96 bf
       0.21815684 -0.09119755 0.4488946 -1.1748815
000050 1a cc b2 3e aa f9 c9 be fe e4 5f bf ab a6 64 3e
       0.34921342 -0.3944829 -0.8745879 0.22329204
000060 bd 21 29 3f d1 36 86 bf a9 08 ae bf 04 77 be 3e
       0.66067106 -1.0485479 -1.3596393 0.37200177
000070 cb 91 3b bf 07 76 0b 3f 63 ba bf bf e9 6e 40 3e
       -0.7326934 0.5447697 -1.4978756 0.18792309
000080 a7 ab a6 bf 4a c2 95 bf 04 4b c5 3e 8d 07 00 3f
       -1.3021134 -1.1699917 0.38533795 0.5001152
000090 79 4d 9a 3d 84 b7 13 bf c2 1a 27 3f e4 3b 5c bf
       0.07534308 -0.577019 0.65275204 -0.86028886
0000a0 64 ec d0 3e 3d 61 7a 3f fd 77 01 bf 6f 84 8d bf
       0.40805352 0.97804624 -0.5057371 -1.105604
0000b0 0b 7d ad bf 1c 67 0b 3f 19 c0 5f bf c4 90 9c bf
       -1.3553785 0.5445421 -0.8740249 -1.2231679
0000c0 a6 57 8f be 64 86 e5 bc 00 06 92 bf 66 27 df 3e
       -0.27996558 -0.028018184 -1.1408081 0.43584746
0000d0 9f 3b fb 3e 6f c7 82 bf 3f 82 d8 bd 21 1d 79 3d
       0.49068925 -1.0217112 -0.105717175 0.060818795
0000e0 14 26 a0 bf a2 5e 31 3f fe 5e 0e 3f c0 5a e4 3d
       -1.251162 0.69285023 0.55613697 0.11150122
0000f0 d2 d3 69 bd 75 97 22 bf c8 27 7a be 9b 54 33 3e
       -0.057086773 -0.63512355 -0.24429238 0.17512743
000100 0c 31 0c 3d 38 03 91 bf d1 5a d7 bf 1f b3 ed 3e
       0.034226462 -1.1329107 -1.682459 0.4642572
000110 47 11 a4 3e a6 9d 11 bf b3 96 16 3f 38 37 e8 bf
       0.32044432 -0.5688118 0.588237 -1.8141851
000120 99 f3 61 3f 75 e1 9b bf 55 09 0f bb 26 d6 81 bf
       0.88262326 -1.2178179 -0.002182563 -1.0143478
000130 95 58 38 bf c0 67 9e bd 81 3d 94 3e 6f b7 c3 bf
       -0.72010165 -0.077346325 0.28953174 -1.5290354

l3.bias f4 [10]
000000 b0 b9 0f 3e 7b c0 18 bf 58 5c 96 bd a7 0e 2e be
       0.14035678 -0.596687 -0.07341832 -0.16997777
000010 7c 14 63 3e e3 c7 6c be 0d 04 3c be 7d 94 0b bf
       0.22175783 -0.23123126 -0.1836092 -0.5452345
000020 4a 78 00 be 44 10 03 3f
       -0.12545887 0.51196694
